Recommendation_Systems/steam_games/app/data/tag_weights.npy (npy, 120928 bytes, 1 tensors)

array f4 [151, 200]
000000 ce c3 a9 3d 60 14 c8 3c bc 4e 37 3d ee bc f3 3b
       0.082893 0.024423778 0.04475282 0.0074382937
000010 cf 86 39 bb 6c 7d 92 3d d7 73 e0 bc 9e d9 ff bc
       -0.0028309112 0.071528286 -0.027398987 -0.031231698
000020 8b 7d 13 3d d8 64 94 3c f2 df e4 3d bf 5c 96 bd
       0.0360084 0.018114492 0.11175527 -0.07341909
000030 35 1b 26 3d d1 ec d3 bd d4 d5 23 bc 43 72 82 3c
       0.04055329 -0.103479035 -0.009999711 0.015923625
000040 d0 df 06 3e 24 2b b8 bd 88 ba 46 bd 38 01 f2 3c
       0.13171315 -0.089926034 -0.048517734 0.029541597
000050 2c 77 48 3d cd d6 d1 bc af 0d e2 3d 37 59 0b bc
       0.048941776 -0.02561512 0.11037766 -0.008505157
000060 f7 b9 4b bd e9 d9 71 ba a2 5f ca bd 5f 8d 9b 3d
       -0.049737897 -0.00092258916 -0.09881522 0.07595324
000070 0b 18 80 bc 95 40 6d 3d e8 5d 93 3d c2 93 a4 bc
       -0.015636465 0.05792292 0.071956456 -0.020089988
000080 29 24 0a be 78 21 31 bc 25 c7 0d 3c 03 fb 03 be
       -0.13490357 -0.010811202 0.008653437 -0.12888722
000090 0c 49 bd 3c 5d 69 7e bd 2f ad bf bc 4d ab 3d bd
       0.02310612 -0.0621122 -0.02339801 -0.046305943
0000a0 28 1d d5 bc 9b ce be 3d 9a bd 20 3e 02 a0 45 bd
       -0.02601488 0.093167506 0.15697327 -0.0482483
0000b0 97 97 c8 bd e6 f8 35 3d ab a7 d2 bd 6f 9b e4 3d
       -0.097945385 0.04442682 -0.102858864 0.11162459
0000c0 5a 2e cc bd eb 64 69 bd 7e 9b 03 bd 6f 9c d3 bc
       -0.09969778 -0.05698101 -0.03213071 -0.02583143
0000d0 57 e0 be ba 9f 41 29 3b 52 52 a8 3d 68 b5 7f 3c
       -0.0014562708 0.0025826467 0.08218826 0.015607215
0000e0 ec 35 aa bd 16 06 fa 3d 80 2d 2b 3c ec 42 cf 3c
       -0.08311066 0.12208192 0.01044786 0.025300466
0000f0 99 98 48 bc 41 ae 6c 3d 74 9c 2a bc 24 82 02 3d
       -0.012243413 0.05778337 -0.010413278 0.031862393
000100 8d 05 57 3d d2 12 70 3d 47 55 d2 3d 54 89 17 bd
       0.052495528 0.0586117 0.102701716 -0.0369962
000110 06 ab 82 bd 59 be 4e bd 36 be 92 3d 0a f1 25 3c
       -0.063802764 -0.0504745 0.07165186 0.010128269
000120 46 6b a0 bd e7 75 a3 3d b4 91 83 3c a3 d7 d4 3d
       -0.07832961 0.079814725 0.016060688 0.10392692
000130 95 58 7b bd 51 ab 8c 3d db 74 6c bd 3f 60 db 3d
       -0.061363775 0.068686135 -0.05772863 0.10711717
000140 8c a8 2f 3d e7 8d e7 3d 1b a9 8f bd ce 1d 40 bb
       0.04288535 0.113063626 -0.07014676 -0.002931464
000150 0f e6 95 bc 6e fe 04 be b4 c8 46 3c e9 6c 38 bd
       -0.018298177 -0.12987682 0.012132812 -0.04502574
000160 57 04 a0 3c ae bc ad bd b8 54 82 3d 46 e8 51 3d
       0.01953332 -0.084832534 0.06363815 0.051246904
000170 a3 a5 b3 3d a4 36 c2 bb c4 cd f5 bd 42 66 d5 3d
       0.08771827 -0.005926924 -0.12002137 0.10419895
000180 6c f2 a8 3d 0f 15 a6 3c 7e 01 aa 3d 26 11 28 3d
       0.08249363 0.020273713 0.08301066 0.04103198
000190 9c 49 aa 3d 93 dc 07 bd b5 b9 15 3e 89 de 67 3d
       0.08314821 -0.03316934 0.14621623 0.05660871
0001a0 ee 14 26 bc 1f 07 0c bd 98 c4 70 bd 91 71 88 b8
       -0.010136826 -0.03418648 -0.058781236 -6.506139e-05
0001b0 b7 c8 a6 3c b6 f1 73 3d 1a 35 6e bd b1 29 20 3d
       0.02035938 0.059556685 -0.05815611 0.03910226
0001c0 ae ad 7e 3d 08 22 69 3d 80 58 d0 bc ad e1 a1 bd
       0.062177353 0.05691722 -0.025432825 -0.07904372
0001d0 19 e6 e2 bd c3 e4 bb bd 1a 74 6d 3d ea 76 97 3d
       -0.11079044 -0.09174492 0.05797205 0.07395728
0001e0 46 00 9e bd 25 8c da bd 42 3d 8b bd 53 af f8 bc
       -0.07714896 -0.10671262 -0.067987934 -0.030357039
0001f0 ce 58 40 3c dd 5e fe bc b2 a5 ca bc 79 fa f6 3d
       0.011739923 -0.031051094 -0.024737213 0.120594926
000200 1d a3 2f bc b1 79 68 bb 09 41 2e 3d 9a 78 88 bc
       -0.010720042 -0.0035472924 0.04254249 -0.01665907
000210 f8 0c a9 3d a2 dd ba bc 6c 01 6c 3c df 4f 8f 3c
       0.08254427 -0.02281076 0.014404636 0.01749414
000220 e0 33 1a bd 08 d9 45 3d a6 b2 15 3c 1f 91 a1 bd
       -0.037647128 0.04830268 0.009136831 -0.07889008
000230 44 60 63 bd 07 ab e7 3d f5 ce a3 bd d4 e1 01 3e
       -0.055511728 0.11311918 -0.07998458 0.12683803
000240 a3 10 95 bc 66 a2 e1 bc a8 40 d8 3a 77 a7 5a 3d
       -0.01819641 -0.027543258 0.0016498761 0.053382363
000250 64 6f 3e bd 6c 18 99 3d 74 20 61 bd 3c 5a b6 bd
       -0.04649295 0.07475361 -0.05496259 -0.089039296
000260 58 3b 33 bd f1 7c 37 3d 7e 03 57 bd 1a 13 cc 3d
       -0.043757766 0.044796888 -0.052493565 0.09964581
000270 1d 90 75 bc 19 24 31 3d f1 f3 11 3c f0 02 08 3e
       -0.014987973 0.043247316 0.008908258 0.1328237
000280 17 5f 88 3c 02 81 01 be f7 e3 01 3d 43 a9 e4 bd
       0.016646905 -0.12646869 0.031711545 -0.111650966
000290 06 e3 1e 3e 7a 6e c5 3c df a3 e6 bd 72 eb f2 bc
       0.1551629 0.02410053 -0.11261725 -0.029653285
0002a0 11 a0 63 3d e0 4b 80 3d b9 07 34 bd 4d f4 1b 3d
       0.055572573 0.06264472 -0.043952677 0.03807478
0002b0 61 36 41 3d a6 84 fc 3c 63 98 bb 3d a0 9e 07 3e
       0.047171 0.03082497 0.09159925 0.13244104
0002c0 b3 2e bb bc 75 f5 e8 3d f8 a0 93 ba 08 f9 79 3d
       -0.022849416 0.11374942 -0.0011263182 0.06102851
0002d0 f6 ee 07 3e ec fd 02 3d d3 39 24 3d be 53 ac 3d
       0.1327475 0.03198044 0.040094208 0.0841441
0002e0 84 74 0d be 2a 66 a4 3c 70 89 d8 3d 1c fc 81 bd
       -0.13813978 0.020068247 0.10573089 -0.06346914
0002f0 26 fe 85 bd 92 b6 19 3e da fe 66 3d 9c 5f 8c bc
       -0.065426156 0.15011051 0.05639539 -0.017135434
000300 76 fc 0f 3e b0 15 f3 bd 5f 37 35 3c 70 ee e9 bc
       0.1406115 -0.11869371 0.011060565 -0.028556079
000310 0a 15 b1 3d 3f e1 0b 3d 05 d5 f5 bd ec 08 0a 3e
       0.08646591 0.03415036 -0.12003521 0.13479966
000320 31 98 92 bd bc ea b2 3d 43 04 e7 3d 70 c6 81 3d
       -0.071579345 0.08736178 0.1128011 0.06336677
000330 9b d4 ce 3a 1f 89 ff 3c 01 fa a3 bd 12 39 a8 bd
       0.0015779914 0.031193314 -0.08006669 -0.0821401
000340 79 1b 35 3d ca 64 0d 3b 25 d9 36 3d 21 07 4d 3c
       0.044215653 0.0021574968 0.04464068 0.012513907
000350 5d c3 bd 3c c9 31 dd bc c1 de d2 bd af 22 09 3e
       0.023164446 -0.027001278 -0.10296393 0.13392137
000360 04 29 51 3d cd 8f 18 bd 26 b3 92 bd f6 de 91 bc
       0.051064506 -0.037246514 -0.07163076 -0.017806511
000370 c1 b0 8c 3d 53 b2 1b bd f5 42 02 3e 7a c9 92 bd
       0.06869651 -0.03801186 0.12720855 -0.07167335
000380 29 69 9d bc 8d 86 19 bd 42 58 44 3d 0e 0a 9a 3d
       -0.019215183 -0.037481833 0.04793573 0.07521449
000390 e1 ad 34 3d 0a 40 19 3d 57 9f 21 3c fd 52 82 bd
       0.044111136 0.037414588 0.00986465 -0.06363485
0003a0 b9 71 44 bd 2a c7 bc 3d 29 ae b1 bc 7f 16 02 3d
       -0.047960017 0.09217675 -0.021689491 0.031759735
0003b0 47 c4 c3 bd 02 80 18 3c 6d 6c 75 3d b2 c1 37 bd
       -0.09558921 0.009307863 0.059917856 -0.044862457
0003c0 6f fb 6d 3c 6f 1a be 3b c9 9b a6 3d 4d b2 70 ba
       0.0145252785 0.005801491 0.081351824 -0.00091818423
0003d0 5d 90 7e bc df da d2 3d 4c a8 2e bd 49 a0 df 3d
       -0.015537349 0.102956526 -0.04264097 0.10919244
0003e0 55 21 22 be 5d ef 00 be 09 61 b9 bd 7c df e5 bb
       -0.15833028 -0.1259131 -0.09051711 -0.007015167
0003f0 b7 ab f3 3d 8a 36 bc 3d 09 3c 47 3c fe 8c 0a be
       0.118979864 0.0919009 0.01216031 -0.13530347
